5/Q1/BOW.model (torch_old, 628642 bytes, 7 tensors)

weight f4 [500, 300]
00000000: ff56 66bc 9c05 99bd e9ee 8abd e5b0 8c3c
00000010: af93 3a3d ac3f 9dbc 3437 b4bc 432a 2d3d
00000020: 1dcd c03b 34f2 c4bc 3a75 733c 9235 73bc
00000030: 55b5 573d 95ed ac3d 6ced 46bc d311 b53b
00000040: 411d 3ebb e90d 063d f2a5 6bbd f2c6 d93c
00000050: fe9f c1b9 51ff c6bc b43e 093c eded 9bbd
00000060: 7975 df3c 15bc cfbc c98d 253c 9163 a7bc
00000070: d5ec f1bb e17c 4ebd 8002 e83c af8f 9a3c
00000080: 9a41 c63c 4d55 303d e1a8 e83c 746c 22bc
00000090: 40a5 69bc 9b48 e43c a706 38bd 8c4a 46bc
000000a0: 6638 39bd d8cc 9f3c 32e5 433c 78c3 c93c
000000b0: b2f0 d03d 2c58 ad3d cca9 243d 5c32 ecbc
000000c0: 7363 1ebd 3242 2d3c 9c52 833b 4b7b 3b3c
000000d0: c4f7 f7bb 707b 143d 1332 80bd 62fb e93d
000000e0: 62a4 183d 439a 183d 3d33 29bc 4f45 aabc
000000f0: df03 f53c b815 293d 4512 26bd f952 8c3d
00000100: bcc6 633d 05cd 8f3d 2eed a3b9 2270 233d
00000110: 2b77 d13c 63b6 c93c 2275 783b d925 0abd
00000120: 7632 163d 60e2 b4bc 4a59 3d3c b4c4 5ebc
00000130: cc01 7a3c 884d 613d 05f2 a5bd 532b 29bd
00000140: f3dd 193c 260b e83b 4990 22bc 9564 a0bc
00000150: 5158 183a 81d9 5d3b 845c 723c c9ae 0b3d
00000160: 571c 94bc 3758 a3bd 9d7b 94ba fe50 f03c
00000170: 2c0c 023d 7527 e83d 8749 66bc 0c00 133d
00000180: 2c2e 8fbc f7e5 7a3c 7db8 e0bc 9c44 bc3d
00000190: 8495 903d dc1a 6cbd e207 88bc bf6d 613b
000001a0: fca5 81bd d554 953c 60b1 8b3d 43b2 62bd
000001b0: 8f0c 5ebd ed25 133c 2800 ef3c aa4c 81bd
000001c0: 1be2 47bd 5eae 443d 08e1 20bd c0d6 a63c
000001d0: 6546 d5bd 7103 50bc d8c2 05bd 381b 8c3c
000001e0: 3706 f5bc 8b90 d9ba be7b 1abd 227c 7ebd
000001f0: 40ad 01bd ad3b b23d 43cf bc3c 71f4 18bd
00000200: 8e80 c33d 3f7f 0c3b 595c 923c 8420 ba3c
00000210: c98e 52bc 547e 543d f5b7 913d bda2 8d3d
00000220: aecf 2f3d e0cd dbbb 4021 7fbd eeee 733d
00000230: 5b20 e8bc 3f34 0cbd d9f1 1dbd da51 233d
00000240: 5ce9 35bd 7b53 8b3c 84c1 17bd 6118 a1bb
00000250: 605f 2b3d e523 953d eb42 8cba c5bf 22bd
00000260: d33c 4d3c 68a0 4d3c 8656 073d 0319 6e3b
00000270: daf1 d2bd f600 0bbd 9a2d 4abd 45ec 0d3d
00000280: e16f 273d b21a 403d 570c 3cbd 1916 3e3d
00000290: 98e9 1eba 154e 6cbd 6215 4bbc 1907 ccbc
000002a0: a48d cb3c 502f 7cbb c0a6 f5bc c2b5 01bb
000002b0: 677d f1bc fd40 57bd 0f8f 1ebd a8de 5d3c
000002c0: 18e7 f53c 894b d33c 4569 f03c d9cf 703d
000002d0: e324 083d 10b1 52bd e6f9 51bd 915d 4e3d
000002e0: 14e6 0c3c 7bcc a1bc 757f 4bbb 461e b73d
000002f0: 2cbc 1bbd bf7a 8dbd 914a 903d edce c6bc
00000300: a690 8dbd 0225 9ebd 700f 30bc 8580 913c
00000310: de54 4f3c 9036 053c 4d50 4d3c 4e0b 6cbd
00000320: 24e9 5dbd ddd3 d43b 6cee 123d 8a65 5d3d
00000330: 4ff4 b83b b75d 303a f477 5fbd 2fcf 6e3d
00000340: bb45 97bc 139e 13bd aed0 9abc 0612 89bd
00000350: 2c6e 703d 4eee af3b d8c0 1dbd 34e2 993d
00000360: 5639 273d 1a21 3b3d a634 78bc 7417 0dbd
00000370: 7e99 9dbb f1a9 953d 1c74 f73b 4bb5 a0bd
00000380: 5c6a 483d c18d efbd 4712 31bd c39f 78bc
00000390: 197f 293d 52ad b13c dd65 53bc 43c7 2e3d
000003a0: 6f62 d4bd ef48 23bd 552f 3abd 0ac5 64bd
000003b0: 7487 d0bc c1f8 083d e62c ce3c 566a 883d
000003c0: a864 583d 2971 323d 9f0d 163d 4c4e 6d3d
000003d0: 2c4d 65b9 aeb2 bf3c 8ce9 89bd dbcf 0d3c
000003e0: 902d a23b d287 c93c c4ea 573d 8e29 003d
000003f0: b44a a7bd 66c3 193d a436 8cbd a9de 70b9
-0.014058827 -0.07471773 -0.0678385 0.017174194 0.045551 -0.0191954 -0.02199898 0.042276632
0.0058838264 -0.024041273 0.014859492 -0.014844315 0.052663166 0.08443753 -0.012141567 0.0055258065
-0.0029009136 0.03272811 -0.057531305 0.026584122 -0.00036931032 -0.024291666 0.008376766 -0.0761374
0.027277695 -0.02535824 0.010104605 -0.02043322 -0.007382969 -0.050412063 0.028321505 0.018867342
0.024201203 0.0430501 0.02840084 -0.009913553 -0.01426059 0.027866652 -0.04492822 -0.012102734
-0.0452198 0.019506857 0.0119565 0.02462934 0.10202159 0.08464083 0.040200993 -0.028832607
-0.03866906 0.010574864 0.0040076505 0.01144297 -0.0075673778 0.03625053 -0.06259551 0.114249006
0.037266143 0.03725649 -0.010327158 -0.020785002 0.029909072 0.04128048 -0.040544767 0.06851763
0.05560945 0.07021526 -0.00031266495 0.03990186 0.025569519 0.024623102 0.0037911613 -0.0337275
0.036669217 -0.0220806 0.011556933 -0.013596702 0.0152592175 0.05500558 -0.08102802 -0.041301083
0.009391296 0.007081407 -0.009922096 -0.019579211 0.00058115 0.0033851566 0.014792565 0.034102235
-0.01807992 -0.0797581 -0.0011328344 0.029335495 0.03174989 0.11335651 -0.014055616 0.035888717
-0.017478071 0.015313617 -0.02743172 0.09192774 0.07059768 -0.057642803 -0.016605321 0.003439769
-0.06330487 0.018228928 0.06820941 -0.055345785 -0.054211196 0.00898121 0.02917488 -0.06313451
-0.048799615 0.048017852 -0.039277107 0.020366073 -0.10413817 -0.012696133 -0.03265652 0.017102823
-0.02991019 -0.0016598863 -0.037715666 -0.0621301 -0.031659365 0.087027885 0.023048049 -0.037342492
0.09546004 0.002143815 0.0178663 0.022720583 -0.012851425 0.05187829 0.07115165 0.069158055
0.04292267 -0.006707892 -0.06228757 0.059554033 -0.02833574 -0.034229513 -0.038560722 0.03987298
-0.044412002 0.01700758 -0.037049785 -0.0049162363 0.041839004 0.07282237 -0.0010701095 -0.039733667
0.012526709 0.012550451 0.0330415 0.0036330826 -0.10300036 -0.033936463 -0.049359895 0.034649152
0.04087818 0.04690046 -0.045910206 0.046407793 -0.000606203 -0.057691652 -0.012395235 -0.024905728
0.024847813 -0.003848035 -0.02998674 -0.0019792174 -0.029478742 -0.052552212 -0.03871065 0.013541855
0.03001742 0.025792854 0.029347071 0.05879197 0.033238303 -0.05143839 -0.051263712 0.0503822
0.008599777 -0.019750824 -0.0031051312 0.08941321 -0.03802125 -0.069081776 0.070454724 -0.024268592
-0.06912355 -0.077219024 -0.010745868 0.017761478 0.012654511 0.0081306845 0.012531352 -0.05762797
-0.05417742 0.0064949826 0.035871908 0.054051913 0.005644358 0.0006727832 -0.054557756 0.058303054
-0.018465867 -0.036039423 -0.018898334 -0.06692891 0.058698818 0.0053689843 -0.03851399 0.07513848
0.040826164 0.045685865 -0.015149271 -0.034446195 -0.0048095575 0.073078044 0.007551683 -0.07847079
0.048929557 -0.11696959 -0.04323032 -0.015174809 0.041380975 0.02168909 -0.012902704 0.0426705
-0.10370337 -0.039864477 -0.045455296 -0.055851974 -0.025455214 0.033440355 0.025167894 0.06660907
0.05283037 0.04356495 0.036634084 0.057935998 -0.0002186789 0.02340063 -0.06733999 0.008655514
0.004949279 0.024600897 0.052714124 0.03128963 -0.08168545 0.037539862 -0.06846359 -0.00022971131

bias f4 [500]
00000000: dad2 d33b 5ce9 8a3c 3732 bebc 85ab afbb
00000010: 901c 80bc 2750 92bc 235c 6a3d 1977 ae3c
00000020: 42fc 403d c256 eabb 4b97 3bbd 14df 843c
00000030: ce5e 6d3d 6ab9 d73c b3cc 323b 5071 62bd
00000040: 3928 fe3b 35e3 9dbc b6ac f93c 2328 10bc
00000050: 015f e83b 6f5c 243c 52e7 0f3d bb5f 91bd
00000060: 4602 c7bc 63aa 673d e34d a33c 7ada 103c
00000070: 6206 633d a803 21bc f4c7 b7bc 228e c7bb
00000080: ba73 483c 3a71 683c 2530 4c3d 2cc8 8d3c
00000090: 9527 94bb 0926 033d 2620 663c a4ba d23d
000000a0: 0cb3 c13b 2776 fb3a 3634 c03a a347 9fbc
000000b0: c025 c23c 37c4 52b9 13aa 2e3d 9268 3ebd
000000c0: 1845 bf3a cc39 1a3c 86fb 2bbd 88b4 2b3d
000000d0: dd60 f43b 14c2 d4bc d133 d9bc eacb edbb
000000e0: 90c4 65bc e78b 99bc 4c06 4b3d 975f 993c
000000f0: 6ac8 bbbc f47e 41bc 7be7 8bba 3b66 443d
00000100: 33c7 24bc 410f 143d 0e0b 2c3d 6bae a53c
00000110: 3789 05bd 02cd 673d dfa3 913c 1d7c b23c
00000120: c890 bc3c 991a 0e3d 124a 92bc abb8 983c
00000130: 36e4 4f3d ba2d 48bc 267c 56bb 9561 563d
00000140: 0acd 48bd 1525 10bd 6845 e63c d1c2 493d
00000150: 53e6 9f3c b503 5f3d 0bd6 8d3b 585e 503d
00000160: fd5f b0bc 0177 983c b721 9a3c 950b 753d
00000170: 1303 273d 59e4 14bc cfc3 653c b1b2 173b
00000180: 2672 823c da44 1bbd a477 813d c31b 753b
00000190: 13f1 f3bb 7f4e 13bd 85a2 f13c 2335 f13c
000001a0: 3d30 303b 8285 693d 2121 1f3d 0de2 363d
000001b0: 5ddd b7bc cb3f 163d 9eda 4dbd 9815 5fbd
000001c0: 773e 82bd fb16 aebc da1d ef3c f469 68bd
000001d0: 53cf 2dbd 3b53 61bd 7079 87bd 65f6 40bd
000001e0: 9569 963d c8bd 5b3d 104b 593b bb9d e13c
000001f0: 612f bb3c 19d1 30bd dc0a 0e3d 695b 3a3d
00000200: b147 79bc cbbb 37bc d5ec 40bd 02d0 b33c
00000210: 9e13 e93c 9059 03bd 5bff 953c cff7 7a3d
00000220: 22b6 aabc 8e30 3a3b 4baf 263d 71a5 263d
00000230: 84de 4dbd c251 4c3d 471d 97bb 752c 423d
00000240: fbb3 b03c 9495 6d3d cdce 3c3d 6519 413d
00000250: 71bf 55bd 8f92 2bbd b72b 553d d78f 2dbd
00000260: 2b92 6a3d 7fa3 053c ab77 0dbd 7cd0 5f3d
00000270: 272c f9bb df61 0e3d 01b0 ddbc 0996 4a3c
00000280: a527 78bd 52bb 0b3c 7db3 403d 1083 743c
00000290: 73fe 36bd e616 273d dec2 aabc 3d9e 5d3c
000002a0: e282 bb3c 0386 3b3d 6762 373d c83f e1bc
000002b0: 5094 033d c976 d6bb 1483 d73c 548d cfbc
000002c0: 990a 013d d072 c4bc 918b b0bc 9411 4b3c
000002d0: 1ae8 f53c b6a7 39bc a6b3 a0bc d6b5 253c
000002e0: 5792 08bd 1e48 333d 9a5e eebc 658d 233d
000002f0: e009 07bd a6c5 903d 1b8d 873d d1b1 c33c
00000300: 4251 bdbc 9cff e53c bebd 4c3d 89ec 00bd
00000310: c6f7 ccbc ce29 21bd 5f9a 64bd f1c2 143c
00000320: b7d2 263d c77f 6cbc 018e bbbc 2f3a 30bd
00000330: c230 473d c9ea e13b e6a8 91bc 09b7 3f3d
00000340: e14c 9fbc a133 e43c 28b6 343d bf98 583d
00000350: 142a 5ebc 7e9c 54bd 0931 6f3c b4b6 853c
00000360: 90c9 063d d84c 323d 348d ffbb ef80 7c3d
00000370: 67d0 64bd 7447 533d a275 be3c b0f1 3a3d
00000380: c610 d33c 5cae fa3c cbd0 943c 3d7f 6abc
00000390: 13ba 913c 4d5b 053d 20ac 463d 5bdb 54bd
000003a0: f2c1 95bd cadf 913c 07a0 72bd 5387 8fbc
000003b0: c7ea 78bd 1540 40bd 8f32 433d 840e 3bbd
000003c0: 494f deba fb9b 65bb 3323 333d 0aae 203c
000003d0: 0cbd 753d 2f2c 4bbd 7034 283b 1753 db3c
000003e0: f0ff a2bc fdef 84ba 6567 683d f2a1 b9bc
000003f0: 1aac 763d 8bee a33c a817 8f3d 81cb 533d
0.0064643444 0.016956978 -0.023217304 -0.005361023 -0.01563862 -0.017860485 0.057216775 0.021297025
0.04711557 -0.0071514556 -0.04579858 0.016219653 0.05795174 0.02633353 0.0027282655 -0.055283844
0.0077562598 -0.01927338 0.030477863 -0.008798632 0.0070914035 0.0100318035 0.035132714 -0.07098337
-0.024293076 0.056558978 0.0199346 0.008841151 0.05542601 -0.009827532 -0.022434212 -0.0060899416
0.012234623 0.014187152 0.0498506 0.017307363 -0.00452132 0.032018695 0.014045751 0.10289505
0.0059112366 0.0019184992 0.0014663998 -0.019443339 0.023699641 -0.00020100256 0.042642664 -0.046486445
0.0014592735 0.009413194 -0.04198792 0.041920215 0.007457836 -0.02597145 -0.026513966 -0.0072569745
-0.014023915 -0.018743468 0.049566552 0.018722339 -0.022922713 -0.011810053 -0.0010673845 0.047949057
-0.010057258 0.03614736 0.04200273 0.02022477 -0.03260156 0.056591995 0.017778335 0.021787697
0.023018256 0.034693334 -0.017857585 0.018642744 0.05075475 -0.012217933 -0.0032727807 0.052339155
-0.049023665 -0.035191614 0.028109267 0.049258057 0.019519007 0.054446895 0.0043284944 0.050871223
-0.021530146 0.018611433 0.018814905 0.0598255 0.040774416 -0.009087645 0.014023735 0.002314728
0.01592357 -0.03790746 0.06321648 0.003740058 -0.00744451 -0.03596353 0.02949644 0.029444283
0.002688422 0.05701209 0.038849954 0.044649173 -0.022444421 0.03668193 -0.050257318 -0.054463953
-0.063595705 -0.021251192 0.029189039 -0.05674167 -0.042434048 -0.055011015 -0.06614959 -0.04710998
0.07344357 0.053647786 0.0033156313 0.027541032 0.02284974 -0.04316816 0.034678325 0.04549733
-0.0152148465 -0.011214207 -0.04710086 0.021949772 0.028451737 -0.032067835 0.01831024 0.061271485
-0.0208388 0.0028410289 0.040694516 0.04068512 -0.050261036 0.049882658 -0.0046116444 0.04740568
0.021570196 0.058003977 0.046095658 0.04714336 -0.052184526 -0.041887816 0.052043643 -0.042373504
0.057268303 0.008156656 -0.034537952 0.054642186 -0.0076041403 0.034761306 -0.027061464 0.012364873
-0.060584683 0.008528547 0.047046173 0.014923826 -0.044676255 0.040793322 -0.020844873 0.0135264965
0.022889558 0.0457821 0.04477158 -0.027496234 0.032123864 -0.006544922 0.02630762 -0.025335945
0.031504247 -0.023980528 -0.021550925 0.012394328 0.030017901 -0.011331489 -0.019616913 0.010114154
-0.033342686 0.04376995 -0.029097844 0.039929766 -0.032968402 0.070689484 0.066187106 0.0238885
-0.023110036 0.028075986 0.04998564 -0.031475578 -0.025020491 -0.03934651 -0.055811282 0.009079681
0.040728297 -0.014434761 -0.022894861 -0.04302424 0.048630483 0.0068944436 -0.017780732 0.046805415
-0.019445838 0.02785665 0.04411903 0.052880045 -0.013559837 -0.051907055 0.014599093 0.016322471
0.03290707 0.043530315 -0.007798815 0.0616464 -0.05586281 0.051581815 0.023249451 0.045640647
0.025764834 0.03060072 0.018165966 -0.0143125625 0.017788922 0.032557774 0.048503995 -0.051967006
-0.07312383 0.017806906 -0.059234645 -0.017520582 -0.060770776 -0.046936113 0.04765564 -0.04566814
-0.0016960885 -0.0035035599 0.04373474 0.009807119 0.059994742 -0.049602684 0.002566602 0.026773019
-0.019897431 -0.0010142323 0.05673923 -0.02266023 0.060222723 0.020011207 0.06986934 0.05170775

weight f4 [500]
00000000: f7b3 2d3f a016 8c3e 5ef9 373f 04e6 f63e
00000010: ed71 3a3e bc65 343f e861 253f 8105 593f
00000020: a783 503e c6ed a53e ec7a 50bb 57ad c53e
00000030: 9a16 763f a893 6b3e 63ce 633e 3b75 563e
00000040: f8e2 063f fce9 bb3e 78a8 923e 952c 203e
00000050: be9e cb3e 31db 6a3f 27ad 2c3f 70f2 653f
00000060: 1521 6a3e 627f a43e a80c 7f3f b638 b93e
00000070: a230 b53e c4ab 273f ead9 173f e27f 4f3f
00000080: 095e 2a3f f8a4 3c3f 2477 f73e a898 303f
00000090: 8bde 453f 42b7 4e3f d3ad c83e 0390 543f
000000a0: 6292 2e3f 2566 653f 8081 ed3d 522a a83e
000000b0: 4f14 203f 4115 273f cbd0 803f 13aa 193f
000000c0: ec6e 983e 479c 733f 3898 7b3f 15bd 9f3e
000000d0: cf94 ec3e b93a 643e 9a84 5c3f 179d 563f
000000e0: 4454 3f3f de26 e33e 1ec7 213e d873 733f
000000f0: 040d 733f 385d 593f 54e4 ae3e 90b1 b43e
00000100: 13fb 2a3f 7d90 383f 9a0f 053f 0972 523e
00000110: 1776 7e3f 8aab e83e 2a66 b63d 91df fd3d
00000120: ba54 7c3f ee03 303f 85b7 013e 4497 333f
00000130: ddbd 7a3f 6a2e ec3d cf98 ce3e d36b b33e
00000140: 3a5f 753f eb10 f33e e0d2 113f 55f6 ce3e
00000150: 46f5 fa3e 5eb4 583f 85c2 443f 4a0e ba3e
00000160: 89a1 db3e dd66 313e bdd8 513f 21ef 4d3f
00000170: b5b9 5b3f c124 733f 3b16 fe3e 7e4e 5b3f
00000180: 68bd 953e bd1c e53e f989 f13d aac5 d83e
00000190: 0f2a 273d 7ff9 a83e f56d 383f cad4 713f
000001a0: 6f87 8a3e 6f81 593f b74d 623f f2a7 133f
000001b0: f707 123f 67ea 083f 56b5 213f b473 053e
000001c0: 868c dc3e 705b a63e 3faa 8a3e 7130 993e
000001d0: d1bc d23e 5558 883e 0834 593f dc40 573f
000001e0: a345 0b3f 9cb4 493f 4cea bb3e d8f0 143e
000001f0: 674f 8f3e 0f3b d53e 5df0 d93e 8410 7d3e
00000200: 2840 163f cb02 543f 65e8 413f ef96 ab3c
00000210: 3e51 183f dbe6 ab3e f38d cb3e d0ea e03e
00000220: 7767 793f 2472 a13e fa49 6c3e e737 bc3e
00000230: 8c22 c73e f9d7 793d fd16 473f 71a9 a13e
00000240: 6ec1 4b3f 52cc 9c3e 63f0 403e 42ad 2f3f
00000250: c018 653e 5134 9b39 444a f33e df0d 1b3f
00000260: a835 ea3e 76fb 903e eabe 2e3f e7ec 463f
00000270: 2e3e 123e cf4c 6e3f c749 003f bcd5 c33e
00000280: 80e6 743f ddd0 383f d5ae 533f 9338 0d3e
00000290: 7430 8b3e 0521 513f ad9c 7f3e 0721 323f
000002a0: 0ecd bf3e 6435 3d3e c287 793f 142f 843e
000002b0: e6c2 1b3f 3538 313e 495d 183f c135 d23e
000002c0: 4689 a33e 3236 573f 9b12 343e 5ee9 3f3f
000002d0: 2d4a 433f deee 233f 6106 513e f4ca 9c3e
000002e0: 7cc9 333f 7c67 063e 2796 e73e 5957 383e
000002f0: ba78 a53e 548b be3e 8da8 c33e 01a7 803f
00000300: c9c3 293e b03b a63e 6327 133e c2a3 c73e
00000310: ccd9 243e 5658 b03e b6ca 613f 0446 033f
00000320: 2566 413f d4ce 353e f342 163f baa1 bf3e
00000330: 0048 3a3d d02c a73e b5b8 c63d 5bb6 a63e
00000340: 1c46 d33e 3c21 213f f516 5f3e 5422 9b3e
00000350: 07a9 ef3e 87d4 633f 43de f33e 84c3 603f
00000360: d290 9c3e a951 0c3f a182 723f 8230 a93e
00000370: c310 1f3f a36a 2d3f b264 b13b f3af b53e
00000380: 1836 c83e 445e 8c3e 6549 583f 38e4 fb3e
00000390: fae6 fc3d 8f39 6c3f bef7 ee3e 731a b73d
000003a0: c2eb b73e 50cc e23e 1eea 5f3e b184 553f
000003b0: d576 603f 06ba 203f eeac 273f 7a71 253e
000003c0: fa35 3f3f 69a4 6e3f 0b71 bc3b 818e 523f
000003d0: 3717 c53e 61dd 023e e96e 443e f7c9 f03d
000003e0: a9c6 4c3f 9924 643e 2aa3 b83d ce05 543f
000003f0: 02be 053f 6b89 ba3e 9ef0 163f 5ae4 733f
0.6785273 0.27361012 0.7186488 0.48222363 0.18207522 0.70467734 0.6460252 0.84774023
0.20362721 0.3240797 -0.0031811548 0.3860881 0.9612824 0.23005545 0.22246699 0.20943157
0.52690077 0.36701953 0.28644156 0.15642007 0.39769548 0.9174071 0.6745171 0.89823055
0.22864182 0.32128435 0.99628687 0.3617608 0.35388666 0.6549647 0.59316885 0.8105451
0.66549736 0.7368922 0.48333085 0.68982935 0.772927 0.8074838 0.39195117 0.83032244
0.6819211 0.89608985 0.11596966 0.32844788 0.6253099 0.65266806 1.0063719 0.6002514
0.29772127 0.95160335 0.9827914 0.31198946 0.46207282 0.22288026 0.86139834 0.8383345
0.74737954 0.4436559 0.15798613 0.9509864 0.94941735 0.84907866 0.34158576 0.3529172
0.6678936 0.7209547 0.5197693 0.20551313 0.9939894 0.45443374 0.08906205 0.123961575
0.9856678 0.68755996 0.12667663 0.7015269 0.9794596 0.1153229 0.4035096 0.350432
0.9584843 0.47473845 0.56962395 0.4042231 0.49015254 0.8465022 0.76859313 0.36339027
0.4289668 0.17324395 0.8197134 0.80443007 0.8583024 0.94977957 0.49626336 0.85666645
0.29246068 0.44748488 0.11793894 0.42338306 0.040811595 0.3300285 0.7204278 0.94465315
0.27056453 0.84963125 0.88399833 0.5767814 0.57043403 0.5348267 0.6316732 0.13032418
0.4307596 0.32491636 0.27083012 0.2991977 0.4115968 0.26629892 0.8484502 0.8408334
0.5440313 0.78791213 0.36702192 0.14545 0.27990267 0.4164662 0.42566195 0.24713331
0.58691645 0.8281676 0.7574523 0.020945994 0.59498966 0.33574566 0.39756736 0.43929148
0.974235 0.31532395 0.23075095 0.367614 0.38893545 0.060996983 0.7776945 0.31574586
0.79592025 0.30624634 0.188417 0.68623745 0.22372723 0.00029602883 0.47517598 0.6056804
0.4574406 0.2831685 0.6826006 0.77705234 0.14281532 0.9308595 0.50112575 0.38249004
0.95664215 0.721937 0.8268865 0.13791113 0.27185404 0.8169101 0.24962111 0.69581646
0.37461132 0.18477398 0.97472775 0.25817168 0.60844266 0.17306598 0.5951734 0.41056636
0.3194067 0.8406707 0.17585222 0.74965465 0.7628506 0.6403636 0.2041259 0.3062359
0.70229316 0.13125414 0.45231745 0.1800207 0.3231867 0.37215674 0.38214532 1.0050966
0.16578592 0.32467413 0.14370494 0.38992125 0.16098708 0.34442395 0.8819994 0.5127871
0.75546485 0.1775468 0.58695906 0.37428075 0.04547882 0.32651377 0.09703199 0.32561
0.41264427 0.62941337 0.21786101 0.30299628 0.46808645 0.88996166 0.4763051 0.87798333
0.3057924 0.54812104 0.94730574 0.3304482 0.6213495 0.6774084 0.005413615 0.354858
0.3910377 0.2741567 0.8448699 0.49197555 0.12348743 0.9227533 0.46673387 0.08940592
0.35922056 0.44296503 0.21866652 0.83405596 0.87681323 0.6278385 0.65498245 0.16156569
0.74691737 0.9321962 0.0057507805 0.82248694 0.38494274 0.12779762 0.19182934 0.11757272
0.7999063 0.22279586 0.09015496 0.8282136 0.52243054 0.36432967 0.589609 0.9527031

bias f4 [500]
00000000: f16d 95bc 28b7 873c e7e4 febc 709f 3f3d
00000010: da05 3abd 067c 9abc 38bf 043c 1a79 3bbd
00000020: 37f0 413d fa43 493c 3cb8 83bc b35d d23c
00000030: a730 57bd 4bdd 633d 8e28 303c 102c 273d
00000040: ad24 dabc e413 78bb 8ed8 d7bc 4007 ab3d
00000050: 5d85 4f3d 8836 a03c fa84 1cbb 0f00 33bd
00000060: adc8 ff3c 1909 933d 34ca 2f3d 9003 52bc
00000070: 440e 453d 072c 083d b7e7 2bbd 1afa 9e3c
00000080: 75ad 123d 18a7 383d 3dfd 5a3d 56ae e8bc
00000090: 5b9f b43a b1fe 263c 4918 1f3c 7100 943a
000000a0: c80d 5fbc 0e64 ca3c c955 413d 37a8 1d3c
000000b0: 00d0 1bbd a842 0bbd 7d3d 273d cf05 903b
000000c0: 53ef b0bb 604e a1bb 574e 3ebd 2aba abbc
000000d0: d66f 66bc c2c1 d83b 9491 67bd d137 34bd
000000e0: 0ee3 9e3b 6689 fbbc fd9d 873d 5ad8 85bd
000000f0: 79ae b6bc af0f f1bb a476 353d 6c12 82bb
00000100: abf9 153d 6d99 87bc 3c11 03bd e4a9 9f3d
00000110: 4795 543d f9cb 323c 0ca2 a53c 468c a2bb
00000120: a348 adbc 075a 663d f8c5 fd3b db78 06bd
00000130: 4164 523d c699 593d 5ab9 c83c 5b96 70bb
00000140: 7ca6 c53c 56cd fa3c 087f 5f3d d891 843d
00000150: 3c39 b8bc 3a33 bc3a a977 3b3d b491 7cbd
00000160: 7fec 9938 b6be 703c 7c83 10bd 1c0a 9d3c
00000170: 4796 e4bc c807 8abb edae 90bc d8e4 943c
00000180: 03a8 693d f82c 9d3c 27b2 093d 0ac2 a13d
00000190: ee87 f9bc 9652 2c3d d78a 523d b3da 183d
000001a0: bfca 17bd ec24 853c a40d 2c3d c3c7 a63b
000001b0: a02e 05bd b01f 85bd ee59 6f3d d371 a73a
000001c0: 0aef c9bc 9658 97bc 2982 0dbd 40d7 08bd
000001d0: 3b8e 543c dfee 12bc 1677 fa3c cf56 27bd
000001e0: 7b59 c3bb fada b7bc 81ab 3e3d 71a5 c63b
000001f0: e781 483b 1438 693d 075f 30bd a325 863d
00000200: 4913 003d 750c 3fbd c200 11bd faa2 f2bc
00000210: ab7a 073d a04a 443c d9a4 0e3d 0527 bcbc
00000220: eda6 3abc d4a1 743d 9714 0b3b 2ed8 cd3c
00000230: 9a0f 7e3d 5f6b 603d e2a6 c5bc 7b2c 173c
00000240: 2880 943c cd98 1c3d dd71 ac3c 4f63 f93c
00000250: 0f82 843c 62be 29bc 8125 5c3d f342 0ebd
00000260: 0655 973c e919 6b3d a5f6 3abc 0db9 99bd
00000270: 8087 943d 06e3 bc3c 12c4 a5bc 9367 083c
00000280: d735 383c 6ad7 4a3d 3ded e63c 7d6a ec3b
00000290: e389 66bc a27e 6d3c c36c 8fbc 8896 c23c
000002a0: f599 cfbc 6d9b 813d f4c1 4fbd 8c6d 203d
000002b0: fef5 2e3d 6686 97bc 9994 1a3d 3a78 adba
000002c0: e999 043c 7432 0d3d 99e7 263d 746c 56bd
000002d0: 0980 86bd 122c d0bc 5b60 d03c 6be7 233d
000002e0: 38b5 d03c 2fcc 813d 8d39 c03b 5d38 813c
000002f0: 8b2c 643d fed7 76bb 9525 d7bb fd45 3abc
00000300: 0596 d03b cb15 273d 2576 793c 8b8a b03c
00000310: cada 18bc ceef 043d 6c50 db3c 0f2a 34bc
00000320: f8fe 0ebd 6193 8c3d b87e 1b3d d697 a0bc
00000330: 2fa1 133c b9e1 25bc d349 093c 8d42 243d
00000340: ca6f cbbc 2ec5 3c3c b593 9a3d 64e9 313d
00000350: 435b 18bc 8e37 59bd 99a8 6ebd b73a bc3c
00000360: 51ba ae3c 4368 543d 7093 093d 198c 103d
00000370: 6213 fbbb a686 35bd 2e18 54bc 5a17 133d
00000380: de60 433d 26f5 cebb b631 47bd 6a5e 4b3d
00000390: 3aa3 ab3c 8ed8 743b 5e5d e93c ada6 0b3d
000003a0: 5654 a03c 67da 993d 8924 b53a 89fe 523d
000003b0: 9cb4 f5bb 98ad 12bd 0a69 aa3b e7a2 67bc
000003c0: c6a3 d7bb b3b3 9b3d 79e0 b0bc 7d8f 01bd
000003d0: 8519 5c3c 1df4 86bb 8c3a d4bc 4f13 a73c
000003e0: 91fa 403c fb16 353d 0462 58bc 5dda a8bb
000003f0: 90d1 0fbc 4243 3f3d dafe 5e3d 9aea 2dbc
-0.0182409 0.016566828 -0.031115009 0.04678291 -0.045415737 -0.018857967 0.008102231 -0.04576979
0.047348227 0.012284273 -0.01607906 0.025679445 -0.052536633 0.055630963 0.0107518565 0.040813506
-0.026628817 -0.0037853653 -0.026348379 0.08350992 0.050664295 0.019557253 -0.002388297 -0.043701228
0.03122362 0.071794696 0.042917445 -0.012818232 0.048109308 0.033245113 -0.041969027 0.019406367
0.035809953 0.045081228 0.053464163 -0.028403442 0.0013780402 0.010192559 0.00971038 0.0011291635
-0.013614126 0.024705913 0.04720095 0.009622625 -0.03804016 -0.033999115 0.040830124 0.0043952237
-0.0053996234 -0.004922673 -0.04646143 -0.020962793 -0.01406475 0.0066148946 -0.05653532 -0.043998543
0.0048488444 -0.030705165 0.06621931 -0.065354064 -0.022299992 -0.007356606 0.044302598 -0.003969481
0.036615055 -0.016552651 -0.031998858 0.07796076 0.051900174 0.010912889 0.020218872 -0.0049605696
-0.0211528 0.0562382 0.007744547 -0.0328301 0.05136514 0.053125165 0.024502445 -0.0036710713
0.024127237 0.03061549 0.054564506 0.0647313 -0.022488229 0.0014358528 0.045768414 -0.06166239
7.339659e-05 0.0146939065 -0.035281643 0.01916986 -0.02790369 -0.0042123534 -0.017661536 0.018175527
0.057044994 0.019186482 0.033617165 0.07898338 -0.030460324 0.042070948 0.05140194 0.037317943
-0.037058588 0.016252957 0.042005196 0.0050897314 -0.03251517 -0.065001845 0.058435373 0.0012775011
-0.024650116 -0.018474858 -0.03454796 -0.033408403 0.0129733635 -0.008968084 0.030574363 -0.04085427
-0.0059615946 -0.022443283 0.046550278 0.0060622026 0.0030595006 0.056938246 -0.043059375 0.065501474
0.03126839 -0.04664274 -0.035401113 -0.029618729 0.03307597 0.011980683 0.03482518 -0.022967825
-0.011392337 0.059724644 0.002122199 0.025127497 0.062026598 0.054789897 -0.024127427 0.009226914
0.018127516 0.03823166 0.021050388 0.030442862 0.016175298 -0.010360332 0.053746704 -0.034731817
0.01847316 0.057397757 -0.011411344 -0.07505999 0.07252407 0.023057472 -0.020235095 0.008325475
0.011243305 0.04952184 0.028189296 0.007214843 -0.014070961 0.014495524 -0.017507916 0.02375342
-0.025341967 0.06328473 -0.050722077 0.039166972 0.042715065 -0.018496703 0.03773937 -0.0013234683
0.008093336 0.034471944 0.040748212 -0.052349523 -0.065673895 -0.02541164 0.02543657 0.04001562
0.025477037 0.06337773 0.0058662356 0.015773946 0.055706542 -0.0037665362 -0.0065657594 -0.011369226
0.00636554 0.040792268 0.015225922 0.021550437 -0.009329507 0.032455258 0.026771747 -0.010996356
-0.034911126 0.06864048 0.037962645 -0.019603651 0.009010597 -0.010124617 0.0083794175 0.04010253
-0.024833579 0.011521621 0.07547704 0.04343547 -0.009299102 -0.053031497 -0.058266256 0.022977216
0.021329077 0.051857244 0.033587873 0.035289858 -0.0076622227 -0.044317864 -0.012945218 0.03591094
0.0476998 -0.006315845 -0.048631392 0.049650587 0.020951856 0.0037360522 0.028486904 0.0340945
0.019571465 0.0751236 0.0013820092 0.051512275 -0.007498337 -0.035810083 0.00520051 -0.01413796
-0.0065808026 0.07602634 -0.021591412 -0.03163098 0.013433819 -0.004118456 -0.025906824 0.02039495
0.01177849 0.04421137 -0.0132069625 -0.005152984 -0.008777991 0.046695 0.054442264 -0.010615015

running_mean f4 [500]
00000000: 2328 333d 50f0 97bd 4401 7abd 0bef c0bd
00000010: f54b febd 46bd 0fbd 6800 9cbc 43ff 853d
00000020: 74dd 47bd 491e afbb ca95 21be ea31 1fbd
00000030: 335f f83d c0ed 073d 34a4 853e 1472 913d
00000040: 2c5d 353e 0849 82bc 14ec 923d e52f 1a3d
00000050: 11ec 1a3e da1b 8c3d 8183 1b3e 3a01 f63c
00000060: 1f62 b83c dcd3 0eba b15e a83e 3e91 e3bc
00000070: 43d0 0c3e dfc3 3fbd d249 cebc cbd4 d13d
00000080: a5fc b1bb 8d8c b23c 6de9 febd 4204 923d
00000090: d1af fe3b f5b4 7c3d 6d77 a53d 999a 3f3e
000000a0: c437 223e 6601 de3c 523c bd3d 3250 b1bd
000000b0: 1b30 eb3c ffe6 843e c0f2 013d 123f fd3d
000000c0: ad5e edbd 64dd ff3c a3e1 4dbd 70d9 96be
000000d0: c2bf 7b3d 40d4 833d c218 fdbd 45da fbbd
000000e0: 604a 2c3e 72b6 5bbb 446c 0e3c 6d6e 0b3e
000000f0: a0da 3dbe 0dfa c53b 6a65 c0bd 2321 fb3d
00000100: e5aa ba3d e9a6 233e d43e b23d cec9 7d3e
00000110: 98c3 0dbe fb8d 0d3d a557 bdbd 0a46 713e
00000120: 2d5b 433e 3756 6c3d 28da 97bd 888c a7bd
00000130: ed30 533d 5547 453e 3f58 9c3d a100 913d
00000140: 8f52 86bd d214 693d e4fa 573b 0f39 c83d
00000150: ab4b df3b 4088 353d bc91 05be 13ca 2abd
00000160: c697 163e c357 94bd 2a78 443d 0a7b adbc
00000170: 4b14 e43d afe2 1d3e c40c d3bd 0602 533e
00000180: bd42 8b3e 2831 6c3d 1b0f b83e 7bd0 1c3e
00000190: 8676 883d caf1 2cba ff33 573d fc39 753e
000001a0: b6ad b53c 4457 4f3e aeb8 9f3d e2a9 683c
000001b0: 28cd 1f3e e78e 353e ec7c 56bc 8c15 f13d
000001c0: 7183 0bbe a191 1a3e 0211 693d b431 3a3d
000001d0: 7869 cb3d 9b80 323e 976a 7abe 2d1f caba
000001e0: c97b 103e ee68 0cbc b000 36bd e8c7 a03e
000001f0: dd24 633d 3c3d 06bd 6231 803e 7987 3e3e
00000200: 3138 083e 1622 efbc 9449 093d 7b2b 60be
00000210: f6f8 343d b02f 54be e3da 09bc 1b25 84bd
00000220: cc0a dcbd ef17 71bd 1262 a73e ae76 a53d
00000230: d4c0 e73c c1cd 833e 4aa7 123d 420b 67bd
00000240: e140 dd3c 2557 5e3e 616d da3d d162 073e
00000250: a4b6 933d 051d fe3d 22c5 043d 5990 6ebe
00000260: 119d a33a 7c8f c3bc 4a68 e3bd b00e 3c3e
00000270: f60d bdbd 6864 043e 032d 793b 0ff6 6ebe
00000280: 8001 ae3d 2dcb c73d 2657 40bb 857e 2f3d
00000290: df85 883b 4b7b 1bbd bd13 bf3d 1ac8 9e3d
000002a0: 529e b13d 9355 193e ff2f 893d 7306 f0bd
000002b0: cda8 143e 546c 203e 949e 1c3e 7737 eb3b
000002c0: a698 0a3d 17c2 333e 373e cbbb 52d9 bc3d
000002d0: 8b9d 693e 118f 8bbd 0874 9a3d 8097 ae3d
000002e0: 0e3e 593d bd5e 633e 137d c03d 8ff5 69bd
000002f0: 81bd b53c 9b24 753e ad1e 4f3e b2d4 25bc
00000300: e13c 263e aedb ac3c 4415 2e3d d1de f8bd
00000310: 6b34 603d f31a 6a3d 6a00 0cbe 63d0 743e
00000320: 8e7d 6cbe fb35 9b3b 83b8 743d 2fbb 47bc
00000330: f77c 143e 8da4 fa3d 1751 ec3d 1089 083e
00000340: 0e16 2ebd a810 863d 0654 b83c eb30 c0bc
00000350: ff59 423e eb45 5abd 7248 843e f4da 053d
00000360: 0ad4 013e a0b6 273e aea5 c63d cff9 1e3e
00000370: 0045 dcbd 3065 bb3e 797b 293e d25f d13d
00000380: 983a 36be 0d09 193e fc04 683c 948d 7c3d
00000390: 5ad7 fabc 4a4c 073e 5271 223d 14d3 18be
000003a0: d26e 023d 1de6 fdbc b46b 48bc f69d fa3d
000003b0: 3664 973d ae03 0a3e ca8c ba3d cd25 82be
000003c0: ff47 063e 03ee 6cbc c5d9 a43d 779a 723e
000003d0: 4abc 9e3e d926 143e 092a 9a3d 9d0d 2d3e
000003e0: fde6 af3c c384 5e3d c310 bfbc 4a4e a7bd
000003f0: a05f 0e3e 333c 953c 7fd8 873d 83ff 6fbe
0.04373945 -0.07418883 -0.061036363 -0.09420594 -0.124168314 -0.035092615 -0.019043162 0.06542828
-0.04879518 -0.0053441864 -0.15779796 -0.03886596 0.12127533 0.03318572 0.2610184 0.07101837
0.17711323 -0.015903965 0.071739346 0.037643332 0.15129115 0.0684125 0.15186884 0.030029882
0.022507725 -0.00054484396 0.32884744 -0.027779218 0.1375132 -0.046817657 -0.025181685 0.10245665
-0.005431729 0.021795535 -0.12446866 0.07129718 0.007772424 0.06169601 0.08079419 0.18711318
0.15841585 0.027100276 0.09240021 -0.08657874 0.028709462 0.25957486 0.031725645 0.12365545
-0.115903236 0.031233497 -0.050264012 -0.29462767 0.06146217 0.06436968 -0.12358238 -0.12297491
0.16825247 -0.0033525494 0.008692805 0.13616343 -0.1854043 0.0060417713 -0.09394343 0.1226218
0.09114627 0.1598164 0.0870339 0.24784014 -0.13844144 0.03455923 -0.092452325 0.23561874
0.1907775 0.05769941 -0.07414657 -0.08181101 0.05156033 0.19265492 0.07634019 0.07080198
-0.065587156 0.05690462 0.003295594 0.09776508 0.0068144402 0.04431939 -0.13043875 -0.04169662
0.14706334 -0.07243302 0.04796616 -0.021176834 0.11136683 0.15418504 -0.10305169 0.2060624
0.27199355 0.057664067 0.35949025 0.15313904 0.066632316 -0.00065973087 0.05253982 0.239479
0.022177558 0.20248133 0.07798897 0.0142006595 0.15605605 0.17730294 -0.013091307 0.11771688
-0.1362436 0.15094616 0.056900986 0.045457557 0.09932226 0.17431872 -0.24454723 -0.0015420668
0.1410972 -0.008569939 -0.04443425 0.31402516 0.055455077 -0.03277324 0.25037676 0.18606366
0.13302685 -0.029191058 0.033517435 -0.21891586 0.04418274 -0.20721316 -0.008414003 -0.0645239
-0.10744247 -0.058860715 0.3269201 0.08079277 0.02829019 0.25742915 0.03580407 -0.05640722
0.027008476 0.2171293 0.106653936 0.13221289 0.0721257 0.12407879 0.032414563 -0.23297252
0.0012482723 -0.02387213 -0.11103876 0.18364978 -0.092311785 0.12928927 0.0038021214 -0.23336051
0.0849638 0.097555496 -0.002934882 0.042845268 0.0041663493 -0.03795938 0.09329937 0.0775301
0.08672775 0.1497405 0.06698608 -0.1171998 0.14517517 0.15666324 0.15294868 0.007178243
0.033836983 0.17554508 -0.006202485 0.09221138 0.22814004 -0.06814397 0.075416625 0.0852499
0.053037696 0.22204109 0.09398856 -0.05711895 0.022185089 0.23939745 0.20226546 -0.010121511
0.16234161 0.021100845 0.04250075 -0.12151874 0.05473749 0.057154607 -0.13672033 0.23907618
-0.2309477 0.0047366596 0.059746277 -0.012190624 0.14500795 0.12238417 0.11538904 0.13333535
-0.0425015 0.06546146 0.022501003 -0.023460826 0.18979643 -0.053289335 0.2583652 0.032679513
0.12678543 0.1637826 0.0969957 0.15524982 -0.10755348 0.36600637 0.16551007 0.102233544
-0.17795789 0.14944859 0.014161345 0.061658457 -0.030620266 0.13212696 0.039658852 -0.1492427
0.031843968 -0.030993516 -0.01223271 0.1223716 0.073921606 0.13477966 0.09108885 -0.25419465
0.13113402 -0.014461043 0.08049349 0.23691736 0.31003028 0.14467944 0.07527549 0.16899724
0.021472448 0.05432583 -0.023323422 -0.08169229 0.13903666 0.018217182 0.0663309 -0.23437314

running_var f4 [500]
00000000: 38d1 433a 10b9 503a 61ff d53a a8bc b93a
00000010: e18e 993a f86b 853a b321 f939 0776 7d3a
00000020: c5e7 643a 2035 803a 0452 393a 5d4d 583a
00000030: b4ce 0b3b f5de b53a ee1d d23a ab60 923a
00000040: 7886 883a d8bf 9a3a 60bd d53a 0721 b43a
00000050: afd2 763a c891 603a ea84 b93a e427 3c3a
00000060: e283 883a 2170 5a3a 511e 663a c7c5 7a3a
00000070: cf71 8d3a 23ff 943a d1a1 903a 30ef 4c3a
00000080: 520e 933a ffba 1f3a c86a 913a d9f0 7a3a
00000090: 6519 003b b487 b53a a05f 9a3a cea0 533a
000000a0: ac89 963a b183 633a c600 8d3a 1a5e cb3a
000000b0: f07d 5d3a cf63 b33a 61ee 7d3a 1ca2 a83a
000000c0: df90 373b 68f0 563a 60d6 9b3a 72ef a13a
000000d0: ccb6 4f3a 9939 9f3a b7c1 793a 0f6d 953a
000000e0: 1df1 de3a 5645 e03a 9925 853a c19a 973a
000000f0: 847e 9b3a b1e7 8a3a aee6 a03a 7a5b 4a3a
00000100: 8366 b93a 77e1 953a f858 9d3a ae78 ad3a
00000110: 9369 823a fcef 963a f6de 903a 8199 eb3a
00000120: 2bf4 813a 4628 ca3a 5d76 133b 9947 883a
00000130: 806e 873a c68d 8e3a 50d3 bc3a a34a 863a
00000140: 089c 3c3a e084 153a c3db 6e3a 561e 8c3a
00000150: ee3d 953a a075 4b3a d361 7b3a bf27 873a
00000160: 402a ac3a aabe ca3a d21b a53a 8543 263a
00000170: ae51 aa3a d98b 9b3a 8456 873a e3b0 4c3a
00000180: 14c9 ab3a 4260 543a d8e8 ba3a 5e28 843a
00000190: 8cad 9d3a 243f 293a 0712 773a cafd 303a
000001a0: 99e4 b23a 1210 da3a 93d0 5f3a 93b7 913a
000001b0: 72f9 803a 6580 e13a 6bbe 4a3a ee47 b43a
000001c0: e571 a03a 3d7e 8c3a b532 453a 0843 003b
000001d0: 06ee 6f3a b331 9d3a fecf 5c3a e569 383a
000001e0: 5561 883a e2f2 bf3a 531f 993a aa46 733a
000001f0: 28bc 8a3a 70ee 6a3a fdbb f83a d3fe 9b3a
00000200: f087 4a3a bca8 d43a 118d ad3a f842 703a
00000210: 8201 513a 830b 043b fa0e 743a 72ec be3a
00000220: b1b4 b93a ac68 b63a 3713 d43a 8400 663a
00000230: 9f0d 8d3a a571 a63a 86ec 803a 3f8f d43a
00000240: 526e 923a c350 b03a 3c7d 993a 09ce 393a
00000250: 0899 c83a 294e 053a 12bd 7b3a 8aeb 493a
00000260: d2dd 7a3a 8058 9e3a 0de4 553a 5835 ae3a
00000270: 23e3 b23a d32a 753a efbc b13a 914d 933a
00000280: 92bc 403a 7ad3 6f3a b9fd 833a e7a1 203b
00000290: 362b b83a 4df7 543a a4ca 8f3a 443d a03a
000002a0: b517 b33a fd08 753a aaf5 5f3a 21ae 9c3a
000002b0: 91d6 843a 4ab1 783a 51ef c03a 3537 a53a
000002c0: 24ac 433a 435c 5e3a e26c 903a 8c3c a53a
000002d0: 9989 863a df8e 9b3a b296 263a 8933 3a3a
000002e0: 5be7 573a 48e6 323b 9ec1 4d3a ef0e bb3a
000002f0: 069f 543a 0a60 933a b2b4 b63a fa88 a83a
00000300: b950 8b3a a340 6d3a e4dc 7b3a a7b1 5e3a
00000310: 330c c53a 851e a53a 1d76 4d3a 87de af3a
00000320: 47e8 193b edf9 523a 7319 b03a e66d a03a
00000330: 4371 af3a 9adb 973a 5226 aa3a b593 a63a
00000340: 9708 8e3a 5c91 8a3a e7d1 363a 4e6c 8e3a
00000350: 9d34 4e3a 14e2 733a 253d c43a 815b 8b3a
00000360: 5eca c03a 4b28 8b3a 22ed 413a 6816 833a
00000370: 0361 6d3a 4d90 023b 3c13 233a c5c2 1f3a
00000380: 39f3 bc3a e78d 923a aca3 953a 8ef0 763a
00000390: c282 843a 9672 9f3a ef0b 913a f1a5 8c3a
000003a0: 222c cd3a e78a 6a3a 0f59 dc3a aadc 903a
000003b0: 40e2 963a 76b1 873a f77f 933a 61d9 f23a
000003c0: 7a2e b63a 7dd7 af3a a469 a739 58ee 633a
000003d0: 7cc3 6f3a 64d0 053b f6d2 c23a 8add de3a
000003e0: 5097 9a3a 4fcb 8f3a ef13 c13a 87df c53a
000003f0: 7d58 843a 3405 923a 3698 543a 90c7 753a
0.00074698357 0.0007962147 0.0016326719 0.0014170604 0.0011715555 0.0010179272 0.0004751809 0.00096687715
0.0008732046 0.0009781457 0.0007069411 0.0008251274 0.0021332921 0.001387565 0.0016030648 0.0011167725
0.0010416051 0.0011806441 0.0016307048 0.0013742753 0.00094155496 0.0008566645 0.0014153991 0.0007177575
0.0010415281 0.00083327485 0.0008778321 0.0009566214 0.0010791364 0.001136754 0.0011034553 0.0007817624
0.0011219478 0.0006093233 0.0011094445 0.0009572632 0.0019546386 0.0013849647 0.0011777766 0.0008072973
0.0011485121 0.00086789863 0.0010757677 0.0015515715 0.0008449247 0.0013686361 0.00096867053 0.0012865695
0.0028009934 0.00081992755 0.001188945 0.0012354685 0.0007923662 0.0012147903 0.0009527462 0.00114003
0.0017009113 0.0017110507 0.00101583 0.0011566506 0.0011863266 0.0010597614 0.0012275779 0.00077193195
0.0014144931 0.0011434992 0.0012004664 0.0013234818 0.0009949676 0.0011515613 0.0011052776 0.0017974825
0.0009914687 0.0015423379 0.002250097 0.0010397314 0.0010332614 0.0010875992 0.0014406238 0.0010245632
0.00071948813 0.0005703699 0.00091117265 0.0010690193 0.0011386254 0.0007761363 0.0009589467 0.0010311528
0.001313515 0.0015468199 0.0012596792 0.00063424587 0.0012994313 0.0011867239 0.0010325466 0.00078083406
0.0013106191 0.0008101502 0.0014260067 0.0010082831 0.001202987 0.0006456247 0.00094249885 0.00067516847
0.001364845 0.0016636869 0.0008537855 0.0011117331 0.0009839965 0.0017204402 0.0007734063 0.0013754347
0.0012240974 0.0010718774 0.00075225095 0.0019571204 0.0009152595 0.0011992961 0.0008423327 0.00070348225
0.0010404984 0.0014644528 0.0011682309 0.0009280244 0.0010584639 0.00089619216 0.0018976923 0.0011901505
0.0007725945 0.0016224603 0.0013240894 0.00091652526 0.0007972942 0.0020148463 0.0009310093 0.0014566316
0.001416823 0.0013916693 0.0016180043 0.00087738805 0.0010761506 0.0012698664 0.0009836114 0.0016217007
0.0011171794 0.0013451803 0.0011710296 0.00070878916 0.0015304396 0.0005085194 0.0009603064 0.00077026396
0.0009569797 0.0012080818 0.00081592874 0.0013291044 0.0013648014 0.00093523896 0.0013560335 0.0011238327
0.0007352318 0.0009148639 0.0010070122 0.0024510564 0.0014050964 0.0008124009 0.0010970426 0.001222529
0.0013663681 0.00093473477 0.00085433817 0.001195375 0.0010134747 0.00094868673 0.0014719759 0.0012604954
0.00074643106 0.0008482376 0.0011018778 0.0012606545 0.0010264396 0.001186814 0.0006354853 0.0007103016
0.0008236074 0.0027297903 0.00078489806 0.0014271418 0.00081108545 0.0011243832 0.001393935 0.0012858205
0.0010628916 0.0009050464 0.00096078054 0.00084951 0.0015033543 0.0012597597 0.00078377296 0.0013417759
0.0023484395 0.0008048106 0.0013435319 0.0012239784 0.0013385195 0.0011585832 0.0012981391 0.0012708815
0.00108363 0.0010571885 0.0006974027 0.0010866018 0.00078661164 0.00093034026 0.0014971836 0.0010632129
0.0014708748 0.0010616867 0.0007397701 0.0010001184 0.00090552884 0.0019922436 0.00062208227 0.00060943916
0.0014415748 0.0011181206 0.0011416576 0.0009420001 0.001010977 0.0012164887 0.0011066179 0.0010730607
0.0015653411 0.00089470897 0.001681121 0.0011052091 0.001151152 0.001035257 0.0011253346 0.0018527919
0.0013899349 0.0013415661 0.0003193143 0.0008694879 0.0009146256 0.00204184 0.0014863897 0.001700328
0.0011794362 0.0010970625 0.0014730672 0.0015096524 0.0010097172 0.0011140467 0.00081098394 0.00093757454

weight f4 [1, 500]
00000000: a2cb 793d 11e1 82bd ab31 423d 1200 97bd
00000010: 223e 613d add3 563d 445b fabc 159f 813d
00000020: 9a1c 90bd e4be 29bd 1172 8b3b d8b7 85bd
00000030: 3851 fb3c 8f6c c5bd 8b64 e03d ad77 96bd
00000040: 6807 673d f130 bd3d d501 833d 904c f9bd
00000050: 817d 89bd 9e83 8bbd ed6a 7e3d 73a7 803d
00000060: dec0 d4bd 7400 e6bd 7aa1 7f3d b57e 0dbd
00000070: 9648 8bbd 2a5f 8bbd beae 283d 0ce2 443d
00000080: 6517 8abd 2c1c 5dbd 647d 20bd 77a6 7f3d
00000090: cee7 4a3d f9ae 973d f5b6 503d 51bf ac3d
000000a0: 54ed d53d 7a06 7dbd 2879 b4bd 391a b03d
000000b0: 9932 753d ed2e b23c 573f 66bd ddf7 263d
000000c0: ff03 433d 778e 3c3d bf81 2e3d e994 36bd
000000d0: 9e10 ac3d 9232 e83d d956 153d 453b 4b3d
000000e0: 053d 5a3d 89d0 053d 63dd d9bd 726a 1e3d
000000f0: 3b5b 353d 4afa 753d 5795 4abd 2dd0 8d3d
00000100: f9f4 173d 0806 0b3d 6611 0a3d 32e0 e6bd
00000110: ca12 4f3d 7870 633d 984d 50bd 1235 843d
00000120: 4a64 4b3d 4029 48bd 13a1 6a3d a143 303d
00000130: 655d 74bd b23a c1bd c252 cdbc 2da2 ba3d
00000140: 7bb4 f7bc 13d2 8ebd 0f5a b2bd 5e4e acbd
00000150: 677b 7a3d 9df5 653d 6dd3 7dbd 29f5 8a3d
00000160: 0b0d 943d 96e9 01bd 9d39 a53c e037 88bd
00000170: 966e 443d 691d 3bbd df03 5d3d ae7f a3bd
00000180: 32bf 8bbd 8cde 39bd adb5 84bd d83d eebd
00000190: 37a6 253d 4dad 9ebd 16dc b0bd 6ed5 8fbd
000001a0: 0cae 9d3d 350c e4bc 2718 39bd 12bd 7c3d
000001b0: 5edd 8f3d ac40 b53c 156f 61bd b0e6 643d
000001c0: c480 7b3d fe0b 473d c7a4 233d 51c6 0b3d
000001d0: 5793 96bd 080b ee3c 045c 64bd 04aa 403d
000001e0: 17f8 863d 7bcc 193d 2674 a73d 897f b43d
000001f0: bf64 c83d a598 bebd ec1f 7d3d 6e50 b7bd
00000200: 90e9 81bd a4a6 833c 9bfe 473d 814e d8ba
00000210: edd8 55bd 125f 843d bd2c 70bd 5e73 4d3d
00000220: b2e3 073d 5ed0 bcbd 8548 db3d 6a6c b63d
00000230: b33d 87bd c03d a1bd 53e0 99bc e72d c23d
00000240: 2559 013d 7690 61bd e28e 8a3d 4acd a1bd
00000250: 317e cc3d ed4d f3ba 2795 4cbd b194 1b3d
00000260: 112d 9c3d 77d0 80bd f7b6 883d da40 7a3a
00000270: 5ef9 febd 64ef 45bd 011f 8b3d 2e31 c83d
00000280: 383b 913d 7cf5 88bd 216b 08bd dc77 9f3d
00000290: 439c cf3d 3560 33bd ca15 d33d e317 3dbd
000002a0: dc64 b33d d097 e2bd a4e6 743d 3c1e 003e
000002b0: eb40 8ebd 50af 4a3d 26bb 3ebd a9f8 913d
000002c0: 9c5b 003e 220a 2cbd cc4c 61bd 408f 273d
000002d0: 820a 1e3a 8da0 533d b305 93bd 313a 87bd
000002e0: 1f7d 95bd 48b1 cbbd 7f4c 853d 02af 5d3d
000002f0: c37c afbd 7ca3 a13d c07b b13d 84a1 503d
00000300: 0efb d1bc 1d67 c7bd d2ef bf3d 65af 11bd
00000310: 19aa a73d f1a4 9cbd b954 96bd 11d0 893d
00000320: e495 e6bc 71d6 24be 901b 923d 9095 cc3d
00000330: 0989 503d d378 9f3d 55b2 823d 6927 4dbd
00000340: 6857 26bd 0bf2 d4bc 7bd9 afbd 6410 c83d
00000350: dd84 a33d 8a47 2f3d 773d 653d 58b0 553d
00000360: 7839 883d 7469 79bd 4738 77bd 5ce0 8b3d
00000370: 21fe 58bd 2c56 873c c584 073b 4191 b0bd
00000380: c703 71bd ee3f bd3d 466f ea3c 427e 8bbd
00000390: b807 98bd f179 a2bd 422d 97bd f457 bbbd
000003a0: cf14 8f3d bbc6 8bbd 515f 953d f6ec 65bd
000003b0: c776 fe3c 09dd 4bba 19ba 923d 43e5 f83d
000003c0: 7ed2 db3c cd3b 7fbd 64e9 cf39 bec6 493d
000003d0: a7ea a73d be85 cd3d 0b2e c63d b6d7 d43d
000003e0: 04bb f0bc 5af5 a33d b4c1 393d f495 29bd
000003f0: 154a b43d 0575 3cbd 37fe 1cbd 23a1 00bd
0.060985215 -0.06390584 0.04741065 -0.0737306 0.054990895 0.052447964 -0.030561097 0.063291706
-0.07036705 -0.041441813 0.004255541 -0.06529206 0.030678377 -0.096398465 0.10956677 -0.07347045
0.056403548 0.092378505 0.06396834 -0.12172806 -0.06713391 -0.06812213 0.06211369 0.062819384
-0.10388349 -0.11230555 0.062409855 -0.034544665 -0.06800954 -0.068052605 0.041182272 0.048067138
-0.067427434 -0.053981945 -0.03918208 0.062414613 0.049537472 0.0740642 0.05095573 0.08434928
0.10445657 -0.061773755 -0.08812171 0.085987516 0.059862707 0.021750892 -0.05621275 0.040763725
0.047611233 0.046034303 0.042604204 -0.044575606 0.08401607 0.113377705 0.036459778 0.04961707
0.05328085 0.032669578 -0.10637929 0.038675733 0.044276457 0.060053147 -0.049458828 0.06924472
0.03709886 0.0339413 0.033708 -0.112732306 0.050555028 0.05552718 -0.05085525 0.06455435
0.04965619 -0.048867464 0.05728252 0.043033246 -0.05965938 -0.09435023 -0.025063876 0.09112964
-0.030237427 -0.06973662 -0.087085836 -0.08413385 0.061152842 0.05614244 -0.06196921 0.06785042
0.0722905 -0.031716906 0.020169074 -0.06651282 0.047957025 -0.045682345 0.05395877 -0.07983337
-0.06823577 -0.045378253 -0.064799644 -0.116328895 0.040441718 -0.07747898 -0.08635728 -0.0702313
0.076992124 -0.027837852 -0.04518905 0.06170375 0.07024644 0.022125565 -0.055037577 0.055884063
0.061402097 0.04859542 0.039952066 0.034124676 -0.073523216 0.029057994 -0.055751815 0.04703714
0.06590288 0.037548523 0.081764504 0.08813388 0.09784841 -0.093064584 0.06179802 -0.089508876
-0.06343377 0.016070671 0.048826795 -0.0016502888 -0.05220883 0.06463446 -0.058636416 0.05015885
0.03317613 -0.092194304 0.107071914 0.08907397 -0.06603565 -0.07873106 -0.018783724 0.094814114
0.031579155 -0.05506941 0.06765534 -0.07900484 0.099850066 -0.0018562652 -0.04994693 0.0379836
0.07625783 -0.062897615 0.06675523 0.0009546407 -0.12449907 -0.048324004 0.06793023 0.09775005
0.07091373 -0.066874474 -0.03330529 0.07786533 0.101372264 -0.043792922 0.1030689 -0.04616536
0.08759472 -0.11064112 0.05979027 0.12511533 -0.06945976 0.049483597 -0.046565197 0.07127506
0.12534946 -0.04200185 -0.05500488 0.0409081 0.00060287875 0.051666785 -0.071788214 -0.06602896
-0.072992556 -0.09945923 0.06508731 0.05412198 -0.08568718 0.0789251 0.086661816 0.050935283
-0.025632408 -0.09736464 0.09371914 -0.03556766 0.081867404 -0.076486476 -0.07340378 0.06729139
-0.028147645 -0.16097428 0.071341634 0.09989464 0.050911937 0.07786717 0.063816704 -0.050086413
-0.0406107 -0.025994321 -0.08586403 0.09768751 0.07984326 0.042792834 0.05596682 0.052170128
0.06651586 -0.060891584 -0.060356405 0.068299025 -0.05297673 0.016520582 0.0020678502 -0.08621455
-0.058841493 0.09240709 0.028617512 -0.06811191 -0.07423347 -0.07933415 -0.07381679 -0.09147635
0.06986391 -0.06825014 0.07293571 -0.056134187 0.031062497 -0.0007776772 0.071644016 0.12153103
0.026833769 -0.06231289 0.00039656006 0.0492618 0.08199053 0.10035275 0.09676751 0.10392706
-0.029386051 0.080057815 0.045350745 -0.041402772 0.088031925 -0.046010036 -0.038328376 -0.031403672
